huggingface/checkpoints/godelai_manifesto_v1.pt (torch, 119985 bytes, 6 tensors)

encoder.0.weight f4 [128, 64]
0	0x3b015276	0.0019732988
1	0x3d3eac9d	0.046551336
2	0x3bb8d93a	0.00564113
3	0x3ceb0ae1	0.02869171
4	0x3d168638	0.036749095
5	0x3d841ba1	0.06450582
6	0x3da9292d	0.08259807
7	0xbcd2c1cf	-0.02572718
8	0x3e0a117e	0.13483235
9	0x3e18c76f	0.14919828
10	0x3da5816b	0.08081325
11	0x3cd6e351	0.02623144
12	0x3de81f55	0.11334101
13	0xbc7c0c84	-0.015383843
14	0x3dabe4a7	0.08393221
15	0x3e445393	0.19172506
16	0xbba904fb	-0.0051580644
17	0x3d8ef6b6	0.0698065
18	0xbc81364f	-0.015772967
19	0x3e25bbf9	0.16184987
20	0x3c17916c	0.00925098
21	0x3d6d1223	0.057878625
22	0x3e34065c	0.17580551
23	0x3deb30f9	0.1148395
24	0x3daf139d	0.08548663
25	0x3d853b98	0.06505507
26	0x3e2b2853	0.16714601
27	0x3e34754d	0.17622872
28	0x3e32fb5c	0.17478698
29	0x3e34ff39	0.17675485
30	0x3e4d949c	0.20076221
31	0x3d5a67d3	0.05332167
32	0x3cdd7fb0	0.027038425
33	0x3e102670	0.14077163
34	0x3ddc0531	0.10743178
35	0x3e298c5a	0.16557446
36	0xbc704627	-0.014665163
37	0xbd5d50ab	-0.05403201
38	0x3e10cfc5	0.14141758
39	0xbca6ebf9	-0.020376192
40	0xbc15ea12	-0.009150045
41	0x3d7bc9c3	0.06147171
42	0x3e19eb1d	0.15031095
43	0xbceb3a00	-0.02871418
44	0xbc7706f2	-0.0150773395
45	0x3d9f5889	0.077805586
46	0x3e0632c4	0.13105303
47	0xbbda9784	-0.006670894
48	0x3d93c987	0.07216173
49	0xbd3b7d1e	-0.045773618
50	0x3d941a37	0.072315626
51	0x3d83baf8	0.06432146
52	0xbd3f979a	-0.046775438
53	0xbd80b4ac	-0.062844604
54	0xbc14be5a	-0.0090785865
55	0x3d6fa864	0.0585102
56	0x3d6322bb	0.055453043
57	0x3da5805f	0.080811255
58	0x3e0424be	0.12904641
59	0x3cde7cba	0.027159084
60	0xbd9b09bc	-0.07570216
61	0x3d038b65	0.03211536
62	0x3e42bbca	0.19016948
63	0x3d0f7ccc	0.035031125
64	0x3c86031b	0.016358903
65	0x3d516921	0.05112565
66	0xbe2620c5	-0.16223438
67	0xbe207b70	-0.15672088
68	0xbdb9ae3e	-0.09066437
69	0xbe2894f5	-0.16463073
70	0xbe23adb9	-0.15984239
71	0xbe369c23	-0.17832999
72	0xbe3c63f6	-0.18397507
73	0x3d010e8e	0.03150802
74	0xbda7464b	-0.08167704
75	0xbd5c9581	-0.053853516
76	0xbe174dab	-0.14775722
77	0xbe33783e	-0.17526338
78	0xbcac1dd6	-0.02101032
79	0xbe2732df	-0.16328
80	0xbd9f805a	-0.07788153
81	0x3c855bd5	0.01627914
82	0x3d5c6662	0.053808577
83	0xbe33f7d3	-0.17575006
84	0xbc1b3f8f	-0.009475603
85	0xbd3e5a84	-0.04647304
86	0xbe241a04	-0.16025549
87	0xbe084eed	-0.13311358
88	0xbe2a8dc5	-0.16655643
89	0xbdc46235	-0.09589044
90	0xbdf3f564	-0.11912039
91	0x3d1219c6	0.03566911
92	0x3d40849a	0.04700146
93	0xbda9089b	-0.082535945
94	0xbc4bf04a	-0.012447426
95	0xbd8dc050	-0.06921446
96	0xbdab7504	-0.08371928
97	0xbdc83a35	-0.09776727
98	0xbdae9fe3	-0.0852659
99	0xbdacdc1a	-0.084404185
100	0xbca99022	-0.02069861
101	0xbe3c81db	-0.18408911
102	0xbdfb6fbe	-0.122771725
103	0xbd7d06a2	-0.061773904
104	0x3c26c434	0.010178614
105	0xbc1800ae	-0.009277506
106	0x3d08af38	0.033370227
107	0xbdd42378	-0.103583276
108	0x3d08a3d9	0.033359382
109	0xbd3eff7e	-0.046630375
110	0xbe1a0f36	-0.15044865
111	0x3d05bb94	0.03264959
112	0xbd247cfa	-0.04015825
113	0xbd6a0eb9	-0.057142947
114	0xbe06bc97	-0.13157879
115	0xbdb772fa	-0.08957477
116	0xbe26de62	-0.1629577
117	0xbd02c8ce	-0.031929784
118	0x3c3fa66c	0.011697393
119	0xbd44a48c	-0.048008487
120	0xbe167dcf	-0.1469643
121	0xbde86365	-0.11347083
122	0x3d158452	0.036503144
123	0xbd5d602d	-0.0540468
124	0xbe0b446d	-0.13600321
125	0x3caa3ba2	0.020780388
126	0xbe3c333b	-0.18378918
127	0xbc8809f1	-0.016606303
128	0xbe25226c	-0.16126412
129	0x3c8329f0	0.016011208
130	0xbddb30d2	-0.10702671
131	0xbe0f2846	-0.13980207
132	0xbe062c76	-0.13102898
133	0xbd3de014	-0.046356276
134	0x3c1765c4	0.009240571
135	0x3c11114c	0.008854222
136	0xbd7fda31	-0.062463943
137	0x3c224bb2	0.0099057425
138	0x3ccd74cb	0.025080105
139	0x3d073506	0.03300955
140	0x3d159017	0.036514368
141	0xbd91daf7	-0.07121842
142	0xbd7325db	-0.059362274
143	0x3c7156bb	0.014730151
144	0xbd860034	-0.065430075
145	0xbcd2566a	-0.025675971
146	0xbe3210bb	-0.17389195
147	0xbdba5ed1	-0.09100116
148	0xbd8f8609	-0.07007987
149	0xbe1f2ec8	-0.1554519
150	0xbd00019b	-0.03125153
151	0x3cc85bcc	0.024457835
152	0x3cf8ac87	0.030355705
153	0x3d17c5a0	0.037053704
154	0x3d656d99	0.056012724
155	0x3bff3aa5	0.0077889734
156	0xbe0808be	-0.13284585
157	0xbd22dc08	-0.03976062
158	0xbe32a727	-0.17446576
159	0xbdd86fc8	-0.105681956
160	0xbd8284e7	-0.06373005
161	0xbccd6c31	-0.025076004
162	0xbde8b1a0	-0.11362004
163	0xbe0b8543	-0.13625054
164	0x3d0262fd	0.031832684
165	0xbd84ab0c	-0.06477937
166	0xbe29d685	-0.16585739
167	0x3d6a0190	0.057130396
168	0xbe03a437	-0.12855612
169	0xbd9e9d1d	-0.07744811
170	0xbd9684d0	-0.07349551
171	0xbdf13053	-0.11776795
172	0x3ca98ab4	0.020696022
173	0xbac0ce31	-0.0014709887
174	0xbc803661	-0.01565093
175	0xbd08e6ae	-0.03342312
176	0x3d51cb77	0.05121943
177	0x3c05da21	0.008169682
178	0xbd53eaa9	-0.05173746
179	0xbbb870da	-0.0056286873
180	0xbe390e35	-0.18071826
181	0xbc861f8a	-0.01637246
182	0x3d317036	0.043319903
183	0x3d59728c	0.053087756
184	0x3c8a6ef4	0.01689861
185	0xbe25d9ff	-0.1619644
186	0xbe020cc9	-0.1270019
187	0x3c4308f5	0.011903991
188	0x3dc1445a	0.09436865
189	0xbdc0f281	-0.09421254
190	0xbc165311	-0.009175078
191	0xbdd70941	-0.10499812
192	0x3dad548d	0.084633924
193	0x3d605a8b	0.05477385
194	0x3e2cedd6	0.16887602
195	0x3d67f31a	0.056628324
196	0x3dcd1ed2	0.10015644
197	0x3d899e3a	0.067196324
198	0x3cc1395a	0.023586918
199	0x3e29021f	0.16504715
200	0x3e0f1c2e	0.13975593
201	0xbc66d550	-0.014088944
202	0x3c6a1fba	0.014289791
203	0x3da819a3	0.08208015
204	0x3d30fec4	0.043211713
205	0x3d448007	0.04797366
206	0xbda3f0c7	-0.08004909
207	0x3df642bf	0.120244496
208	0xbd6e9e3f	-0.058256384
209	0x3d30360c	0.043020293
210	0xbd93c0d1	-0.07214511
211	0x3df2c89a	0.11854668
212	0xbd166568	-0.036717802
213	0x3dc473d1	0.09592403
214	0x3de7d815	0.11320511
215	0x3e19805c	0.14990371
216	0x3de553da	0.11197634
217	0x3d2347c1	0.03986335
218	0xbda299af	-0.07939469
219	0x3e246e36	0.16057667
220	0xbd86f3c2	-0.06589462
221	0x3e274865	0.1633621
222	0xbd16baec	-0.036799356
223	0x3d7691c9	0.060197625
224	0xbbd1a65d	-0.006398006
225	0xbd0ca089	-0.034332786
226	0x3e0981b5	0.13428386
227	0xbd8728c7	-0.065995745
228	0x3daead45	0.08529142
229	0x3e11383e	0.14181611
230	0xbd020fc6	-0.031753324
231	0x3e0c909a	0.13727036
232	0xbd82b513	-0.063821934
233	0x3db744c6	0.08948664
234	0xbd907883	-0.07054236
235	0x3db09bab	0.08623441
236	0x3e26c4d4	0.16286021
237	0x3d9f9a19	0.07793064
238	0x3e30524c	0.17218894
239	0x3ca0ce0a	0.019629497
240	0xbd0f25de	-0.034948222
241	0x3dafda72	0.08586587
242	0x3dc0c160	0.09411883
243	0x3cd4eafb	0.025990954
244	0x3e24ef20	0.16106844
245	0x3e0977a9	0.13424553
246	0xbc03fa40	-0.00805527
247	0x3de13564	0.109965116
248	0x3dc82244	0.09772161
249	0x3e13c8af	0.14432023
250	0x3d25f587	0.040517356
251	0x3d9cec99	0.07662315
252	0xbced0d11	-0.028936895
253	0xbca86ddc	-0.020560198
254	0x3d7dd0f4	0.06196685
255	0x3d309443	0.043110143

encoder.0.bias f4 [128]
0	0xbc110bad	-0.008852881
1	0xbd86b21c	-0.065769404
2	0xbdba48f7	-0.09095948
3	0x3e0d9523	0.13826422
4	0x3dae8f03	0.08523371
5	0x3d20bd4f	0.03924304
6	0x3d9336fb	0.07188221
7	0xbd2fb7b0	-0.042899787
8	0x3d66dadc	0.056361064
9	0x3c9381b5	0.018006185
10	0x3ca08ec3	0.019599324
11	0x3dcb1ec4	0.099179775
12	0xbdb16a2e	-0.0866283
13	0x3db072fd	0.08615682
14	0x3de5106d	0.111847736
15	0xbda35294	-0.07974735
16	0xbe4422c1	-0.19153883
17	0x3db2eb5c	0.087362975
18	0xbd860019	-0.065429874
19	0x3d9ec7c9	0.0775295
20	0x3dc907ab	0.09815916
21	0xbe18f00a	-0.14935318
22	0xbe08369b	-0.1330208
23	0xbcaf21d6	-0.021378439
24	0xbd551785	-0.052024383
25	0x3cf5a244	0.0299846
26	0xbdc9b5cb	-0.098491274
27	0xbdf8ef61	-0.12155033
28	0xbe25ec94	-0.16203529
29	0x3d6ef7c3	0.058341753
30	0xbda0b3b5	-0.078467764
31	0x3db6b706	0.08921628
32	0x3e0fd852	0.14047363
33	0x3d46c2ea	0.04852573
34	0xbd5b29fa	-0.05350683
35	0x3c2652e8	0.010151602
36	0xba86af6b	-0.0010275667
37	0x3c1e2149	0.0096514905
38	0x3dcfb8fc	0.10142705
39	0x3df36072	0.1188363
40	0x3d1402be	0.036135428
41	0xbbd5641a	-0.006512177
42	0x3cf564ab	0.029955229
43	0x3db9ddd3	0.09075513
44	0xbd5fc6d9	-0.054632995
45	0x3de6cab2	0.1126913
46	0xbe43b308	-0.19111264
47	0x3d2f0d3c	0.04273723
48	0xbc8569e7	-0.01628585
49	0xbe125487	-0.14290057
50	0xbd9af877	-0.07566922
51	0xbdec8687	-0.115490966
52	0x3c9279a5	0.01788027
53	0x3c89f854	0.016842045
54	0xbd031d50	-0.032010376
55	0xbe262022	-0.16223195
56	0x3dbeb420	0.093117
57	0x3c806f50	0.015678078
58	0xbbc3bac3	-0.0059731915
59	0xbc946528	-0.018114641
60	0x3dace416	0.084419414
61	0x3e0a5248	0.1350795
62	0x3de66c73	0.11251154
63	0xbe35a892	-0.17740086
64	0xbdcc630b	-0.099798284
65	0xbd787fab	-0.06066863
66	0xbe250c28	-0.16117918
67	0x3e1df549	0.154256
68	0xbde193b4	-0.110145
69	0x3dcdc727	0.10047751
70	0xbca89d32	-0.020582769
71	0x3da11532	0.07865371
72	0xbdaf4541	-0.08558131
73	0x3defd216	0.117099926
74	0x3e0ab160	0.13544226
75	0x3d90a3e1	0.070625074
76	0x3e32af9d	0.17449804
77	0xbb5003e9	-0.0031740612
78	0x3d1f8a51	0.03895027
79	0x3d55485d	0.052070964
80	0x3cba0382	0.02270675
81	0x3e25eb97	0.16203152
82	0xbcdd2b9e	-0.026998337
83	0x3cb2698c	0.021778844
84	0x3df166d1	0.11787189
85	0x3e3bad03	0.18327717
86	0xbd907d4c	-0.070551485
87	0xbda662ce	-0.08124314
88	0xbde41d6c	-0.11138424
89	0x3d6d6b60	0.05796373
90	0xbe52ef04	-0.2059899
91	0x3dd2ffef	0.10302722
92	0xbe1bbb43	-0.15208153
93	0xbe29ed06	-0.16594324
94	0x3cdf15b9	0.027232038
95	0xbddf846f	-0.109139316
96	0x3d8f9a1a	0.070118144
97	0xbcb32ad1	-0.021871002
98	0xbe2db4be	-0.16963479
99	0xbc6b6d65	-0.014369343
100	0x3cac3ed5	0.021026054
101	0x3df6f2f8	0.12058061
102	0x3d4d4d28	0.05012241
103	0xbd246cd2	-0.04014284
104	0xba2c9e42	-0.00065848615
105	0x3d598227	0.05310264
106	0x3da70969	0.08156092
107	0x3dc0a3c4	0.09406236
108	0x3c980aa1	0.018559756
109	0xbdfbcaaa	-0.122945145
110	0x3b7e99d2	0.0038849008
111	0x3d7f0ece	0.06226998
112	0x3de20232	0.11035575
113	0x3d396cc3	0.04526974
114	0xbd8d075b	-0.068861686
115	0x3dbf01e6	0.09326534
116	0x3e284c82	0.16435435
117	0x3d464fb2	0.048415847
118	0x3dd9d0c9	0.10635526
119	0xbd58cdaa	-0.05293051
120	0x3d17453b	0.036931258
121	0x3c056ef6	0.008144131
122	0xbe2caf6e	-0.16863796
123	0x3d2e1df4	0.042509034
124	0x3c6a1248	0.014286585
125	0xbd4c61cf	-0.049897965
126	0x3dc880ff	0.09790229
127	0xbe3146b6	-0.1731213

encoder.2.weight f4 [128, 128]
0	0xbd3e7ef9	-0.04650781
1	0x3d130667	0.035894778
2	0xbdd177c5	-0.10227922
3	0xbdd013ad	-0.10160003
4	0x3d8037f8	0.06260675
5	0xbd4714b5	-0.048603732
6	0xbd0e45be	-0.03473448
7	0xbcf62a79	-0.03004955
8	0xbd833ff7	-0.06408685
9	0x3d34d679	0.04414985
10	0xbd01859d	-0.031621564
11	0xbe8a01b0	-0.26954412
12	0x3d858af4	0.06520644
13	0x3d99515c	0.07486221
14	0xbe4f5830	-0.20248485
15	0xbcc85719	-0.024455594
16	0xbc5730c6	-0.013134187
17	0xbdc04f05	-0.09390072
18	0x3d1564d8	0.036473125
19	0x3e0363ed	0.12831087
20	0x3dd2dd91	0.10296167
21	0x3e1527b8	0.14565933
22	0x3d9f931b	0.0779173
23	0x3d95aac8	0.073079646
24	0x3d3eed34	0.046612933
25	0xbd6a7bca	-0.05724696
26	0x3b937398	0.004499864
27	0xbc8daf90	-0.017295629
28	0xbcd41362	-0.025888149
29	0x3e124fa8	0.14288199
30	0x3d8ca7de	0.068679556
31	0xbb872ac3	-0.0041249706
32	0xbe63b756	-0.22237906
33	0xbe79465c	-0.24343246
34	0x3e16f56b	0.14742057
35	0x3d1eabde	0.038738124
36	0xbda16c3c	-0.07881972
37	0xbe5888fd	-0.21146007
38	0x3dcadb2e	0.099050865
39	0x3ddc23db	0.107490264
40	0xb9ee5dd3	-0.00045464802
41	0x3a4c2fa6	0.00077890826
42	0xbd8bcaa4	-0.0682576
43	0x3dd63a24	0.10460308
44	0xbc476139	-0.012169176
45	0xbd00d12b	-0.031449478
46	0xbe3978b8	-0.18112457
47	0xbe7b1c79	-0.2452258
48	0xbe69c168	-0.22827685
49	0x3d796cec	0.06089489
50	0xbb8fb285	-0.004385295
51	0xbd989138	-0.07449573
52	0x3d807468	0.06272203
53	0x3dc79932	0.097460166
54	0x3d9d24a5	0.07673005
55	0x3dde32ae	0.1084951
56	0xbe5f227c	-0.21790498
57	0x3ceae68e	0.02867439
58	0xbe0f5530	-0.1399734
59	0x3dfea3b5	0.124335684
60	0xbc9ba8a7	-0.019001318
61	0xbd80cfff	-0.06289672
62	0xbde22a95	-0.11043278
63	0x3e238cb6	0.15971646
64	0x3da7e016	0.08197038
65	0xbcd5ee8a	-0.02611472
66	0x3e1fda0d	0.15610524
67	0xbcd1be32	-0.025603388
68	0x3cb9742d	0.022638405
69	0xbc9fa3ea	-0.01948734
70	0x3d25dd14	0.04049404
71	0xbdb12b9f	-0.08650898
72	0xbd9304e0	-0.07178664
73	0xbe058590	-0.13039231
74	0xbe5e33de	-0.21699473
75	0xbdfe329f	-0.12411999
76	0xbe7cb827	-0.24679624
77	0x3c651c2f	0.01398377
78	0x3c91630e	0.017747428
79	0xbd8e89b6	-0.0695986
80	0x3e198fcb	0.14996259
81	0xbdb5ccdc	-0.088769644
82	0x3d108e29	0.035291824
83	0x3cc8e689	0.02452399
84	0xbdd3821e	-0.10327552
85	0xbe6f216d	-0.23352595
86	0xbd59859e	-0.053105943
87	0x3db156f3	0.08659162
88	0xbd8f6ef2	-0.07003583
89	0xbd87226f	-0.065983646
90	0x3e50b7ed	0.20382662
91	0xbdafec6c	-0.08590016
92	0x3d51f28d	0.051256705
93	0x3e624d31	0.22099759
94	0xbd33a3a8	-0.043857247
95	0x3e345f35	0.17614444
96	0x3ce99221	0.028512063
97	0xbc37db58	-0.011221729
98	0x3dc0cd2a	0.09414132
99	0xbdff4ef9	-0.12466235
100	0x3d896660	0.067089796
101	0xbda538b8	-0.08067459
102	0xbdd0caea	-0.10194953
103	0x3e256922	0.16153386
104	0xbc17da31	-0.0092683295
105	0x3e014221	0.12622882
106	0xbdc9c953	-0.09852853
107	0x3d265276	0.040605985
108	0x3d937e8c	0.07201871
109	0x3e3d184e	0.18466303
110	0xbd933a50	-0.071888566
111	0xbe15ee6b	-0.1464173
112	0xbdba6241	-0.09100772
113	0x3d8cf819	0.068832584
114	0xbad7b63f	-0.0016457512
115	0x3c402742	0.01172811
116	0xbe498b5c	-0.19682068
117	0xbe3ecdef	-0.18633245
118	0x3d9d7428	0.07688171
119	0x3dbe512e	0.092928275
120	0xbdc429d6	-0.09578292
121	0xbe8f1c7c	-0.2795142
122	0x3e5d0f3d	0.21587844
123	0xbe46bc7b	-0.19407837
124	0x3dcb6725	0.09931783
125	0xbd092a85	-0.033487815
126	0xbc8c45eb	-0.017123183
127	0xbd773066	-0.06034889
128	0x3dbacbec	0.09120926
129	0x3dffd8fa	0.12492557
130	0x3c8ef4da	0.017450739
131	0x3b9f3ba6	0.0048594056
132	0xbc2ddbf9	-0.010611528
133	0xbc99eaf6	-0.018788796
134	0x3c936399	0.017991828
135	0xbdcaff42	-0.09911968
136	0xbdbf388e	-0.09336959
137	0xbc99a8cb	-0.018757245
138	0x3e024d49	0.12724794
139	0xbdab4978	-0.083636224
140	0xbd065f93	-0.03280599
141	0x3dec535c	0.11539337
142	0x3d9eb558	0.07749432
143	0x3cc97bf5	0.02459524
144	0x3e0eec2f	0.13957284
145	0x3db1e6a4	0.08686569
146	0x3dc88055	0.097901024
147	0x3ceae41e	0.028673228
148	0xbdd3fe77	-0.1035127
149	0x3dc3a41b	0.09552785
150	0x3d784cf6	0.06062027
151	0xbca166d4	-0.019702353
152	0x3d250d5f	0.040295955
153	0xbd2d7823	-0.0423509
154	0xbcceb2da	-0.025231767
155	0x3e0db502	0.1383858
156	0x3d85afab	0.06527647
157	0x3b496e07	0.0030735747
158	0xbd3f7fd2	-0.04675276
159	0xbd782b79	-0.060588334
160	0x3c9a5bf0	0.018842667
161	0xbd5508e2	-0.052010424
162	0xbc5aff9a	-0.013366604
163	0x3d45d058	0.048294395
164	0xbd31ce78	-0.043409795
165	0xbd856810	-0.06513989
166	0xbd5198df	-0.05117118
167	0x3d89fdf6	0.06737892
168	0xbc9b853d	-0.018984431
169	0x3e0d7a9e	0.13816306
170	0xbd8af5bd	-0.06785152
171	0xbcdbe566	-0.026842784
172	0x3d325ca1	0.04354537
173	0xbd780200	-0.060548782
174	0x3c818fc9	0.015815632
175	0x3daa2595	0.083079495
176	0xbd94ff33	-0.07275238
177	0x3de7b99e	0.113147005
178	0x3d91fd65	0.07128409
179	0xbd9efaf5	-0.0776271
180	0x3decbd20	0.1155951
181	0x3cdf330b	0.027246019
182	0x3d3d2e3a	0.046186663
183	0x3baad750	0.0052136555
184	0xbd1c52a6	-0.038164757
185	0xbdd07d1e	-0.10180114
186	0xbdb87366	-0.090063855
187	0xbd836d6d	-0.06417356
188	0x3cfbc650	0.030734211
189	0xbd8ac1b3	-0.067752264
190	0xbdda311e	-0.106538996
191	0x3def3e7a	0.11681838
192	0x3dcc64a7	0.099801354
193	0x3d8740b7	0.0660414
194	0x3c8070fb	0.015678873
195	0xbdc352e4	-0.095372945
196	0x3d86db7c	0.06584832
197	0xbca83957	-0.020535154
198	0xbc9813d4	-0.018564142
199	0x3d2ea2e8	0.04263583
200	0x3d00fda1	0.03149188
201	0x3c1eeb55	0.009699662
202	0xbca3effc	-0.020011894
203	0xbcb12a62	-0.021626655
204	0xbdeb2b7f	-0.114829056
205	0xbdbeb149	-0.09311158
206	0xbdceb58c	-0.10093221
207	0xbc8b6d8d	-0.017020011
208	0xbd9ac75b	-0.07557555
209	0xbd96fd00	-0.07372475
210	0xbdb3c1b2	-0.08777179
211	0x3dddd1b4	0.10831013
212	0x3c0cf6f4	0.0086038
213	0xbd1031ad	-0.035203625
214	0x3c88e1a2	0.016709153
215	0x3df0a721	0.11750627
216	0x3ca955ec	0.020670854
217	0x3c4d1f1e	0.012519626
218	0xbd38f6bc	-0.04515718
219	0xbdf94529	-0.121713944
220	0x3e0762a7	0.13221227
221	0xbcb2137a	-0.021737803
222	0x3be67a6e	0.0070336377
223	0x3e0a92cc	0.13532561
224	0x3d13ca3c	0.036081538
225	0x3e10f7a5	0.14156969
226	0xbce14724	-0.027499743
227	0xbd869d5b	-0.06572982
228	0x3e0c31bf	0.13690852
229	0xbd81882b	-0.063248
230	0xbc70c2f8	-0.014694922
231	0x3d307721	0.04308236
232	0xbdd63fe7	-0.10461407
233	0x3e1a74f3	0.15083675
234	0xbd17acf7	-0.037030187
235	0xbd044e3f	-0.032301184
236	0xbbe635a6	-0.0070254384
237	0x3daf5694	0.08561435
238	0x3dadb07b	0.084809266
239	0xbdbf00de	-0.09326337
240	0xbbc237b4	-0.0059270505
241	0xbd7a08d3	-0.06104357
242	0x3e0176d0	0.1264298
243	0x3dd948bf	0.10609578
244	0x3d2dd8c2	0.042443044
245	0xbd1fc9ad	-0.039010692
246	0xbbfaa4c5	-0.0076490366
247	0xbc41bfe6	-0.011825537
248	0xbdcaff6f	-0.09912001
249	0xbc9b406f	-0.018951623
250	0x3d1bd8b8	0.038048476
251	0x3d686d55	0.056744892
252	0x3b5850d9	0.0033007173
253	0x3d690c00	0.05689621
254	0xbdae312b	-0.08505472
255	0x3da584a1	0.080819376

encoder.2.bias f4 [128]
0	0xbd7587e1	-0.059944037
1	0xbc292b2c	-0.010325234
2	0xbd3378bc	-0.043816313
3	0xbda72672	-0.0816163
4	0xbe0ad604	-0.13558203
5	0x3c15db47	0.009146518
6	0x3e369be7	0.1783291
7	0x3c35d180	0.011097312
8	0xbd4bf7db	-0.04979692
9	0x3e11d4dc	0.14241356
10	0x3d802575	0.06257144
11	0x3dcbe8a2	0.099564806
12	0xbc812b88	-0.015767828
13	0x3df7aa39	0.12093014
14	0x3d8a99e2	0.06767632
15	0xbd8f7abf	-0.07005834
16	0x3e3da943	0.185216
17	0x3d9b0552	0.07569374
18	0xbdc472b0	-0.095921874
19	0x3d45b76e	0.048270635
20	0x3dcae282	0.09906484
21	0x3d024966	0.03180828
22	0xbdc2d906	-0.0951405
23	0xbdd31ed3	-0.10308614
24	0xbe4f1445	-0.20222576
25	0x3d10670c	0.035254523
26	0xbd97e872	-0.07417382
27	0x3b1893c7	0.0023281442
28	0x3dc423d3	0.095771454
29	0x3d86fb86	0.06590943
30	0xbcf586ea	-0.029971559
31	0xbd3d5257	-0.046221104
32	0x3e1b633a	0.1517457
33	0x3d57fb77	0.05273005
34	0x3c8bb823	0.017055577
35	0x3ddb3ec3	0.1070533
36	0xbcdab9f3	-0.026699996
37	0x3da9eac4	0.08296731
38	0x3dc620b5	0.09674207
39	0xbbce9056	-0.0063038273
40	0xbe3ca341	-0.18421651
41	0x3d067d2c	0.032834217
42	0x3e0459a1	0.12924816
43	0xbb8ba334	-0.0042613987
44	0x3de84efc	0.1134319
45	0xbb8a5a8c	-0.00422222
46	0x3d2654c6	0.04060819
47	0xbdcd7369	-0.10031778
48	0x3dd15b59	0.10222501
49	0xbc494820	-0.012285262
50	0xbd34ed43	-0.044171583
51	0x3d4b269a	0.04959736
52	0xbceff7d5	-0.02929298
53	0x3cabcd02	0.020971779
54	0x3e3129da	0.17301121
55	0x3d6ea283	0.058260452
56	0x3daefbc0	0.08544111
57	0x3daee04d	0.08538876
58	0x3debf58f	0.11521446
59	0xbc8eabed	-0.017415965
60	0x3cc2e74c	0.023791932
61	0xbd9b5398	-0.075843036
62	0x3de7609f	0.11297726
63	0xbd6f971a	-0.05849371
64	0xbcd20e85	-0.02564169
65	0x3d102c32	0.035198398
66	0xbcc3383f	-0.023830531
67	0xbcb853d6	-0.022500914
68	0x3bffd7fb	0.0078077293
69	0x3ddc49f8	0.10756296
70	0xbdc6977a	-0.096968606
71	0x3c5bceca	0.013416002
72	0xbd9dc039	-0.07702679
73	0xbdbd57bd	-0.092452504
74	0x3e3c91a0	0.18414927
75	0xbd5e0f3f	-0.05421376
76	0x3db613d1	0.088904984
77	0xbe0635b8	-0.1310643
78	0xbd9508fa	-0.07277103
79	0xbce0d1e5	-0.027443836
80	0x3d6549f9	0.05597875
81	0xbe1a4a34	-0.15067369
82	0x3d00324d	0.03129797
83	0x3d7e3682	0.0620637
84	0x3e139a1c	0.14414257
85	0xbd4af07b	-0.049545746
86	0xbe3fbd4c	-0.18724555
87	0xbcf54a48	-0.029942647
88	0x3db45a1d	0.0880625
89	0x3c96e500	0.018419743
90	0xbcc9aa53	-0.02461735
91	0x3d07d7e8	0.03316489
92	0x3c041809	0.008062371
93	0x3e01a69e	0.12661216
94	0xbe233134	-0.15936738
95	0xbd49c3e3	-0.049259078
96	0x3dd664e1	0.1046846
97	0x3df3b29a	0.118993
98	0xbe0c356b	-0.13692252
99	0xbd9cd2c6	-0.07657389
100	0xbdfaa8cd	-0.122392274
101	0x3b9d9e36	0.00481012
102	0xbce4de2a	-0.027937967
103	0xbdad94a1	-0.08475614
104	0x3d86be18	0.06579226
105	0xbd8cec48	-0.068810046
106	0x3d9f446f	0.077767245
107	0x3d8b5e3b	0.068050824
108	0xbe17efc8	-0.14837563
109	0x3e0ed99b	0.13950197
110	0xbdc8579d	-0.09782336
111	0x3dedac21	0.116050966
112	0x3e233541	0.15938284
113	0x3e316256	0.17322668
114	0xbd9f7e4b	-0.0778776
115	0xbde16d6e	-0.110072
116	0x3cd9879d	0.026553923
117	0xbd39ecd3	-0.04539187
118	0x3d9ba465	0.07599715
119	0x3da06e22	0.07833506
120	0x3da4a57c	0.08039376
121	0xbe27d291	-0.16388918
122	0x3e0fdeb8	0.14049804
123	0x3d0aa20b	0.033845942
124	0xbc5c97c5	-0.013463919
125	0xbdcd5a51	-0.10026992
126	0xbcb2ea5b	-0.021840265
127	0x3c9061a4	0.017624684

encoder.4.weight f4 [32, 128]
0	0x39e5a0ec	0.0004379818
1	0x3b9b8c1c	0.004746927
2	0xba573ae0	-0.0008210372
3	0x3d6edb82	0.058314808
4	0xbda60c57	-0.081078224
5	0x3d6436e9	0.05571643
6	0xbba5f2ba	-0.0050643357
7	0x3bd18a23	0.006394641
8	0x3d56b371	0.052417222
9	0x3dab8a62	0.08376004
10	0x3dd11981	0.102099426
11	0x3cfa0f8b	0.03052499
12	0xbde6d511	-0.11271108
13	0xbd59c75c	-0.05316864
14	0xbd31abae	-0.043376617
15	0xbd42c8de	-0.047554843
16	0x3d877cd8	0.06615609
17	0xbd4f4879	-0.050606225
18	0xbba6b99c	-0.0050880443
19	0x3c21a344	0.009865586
20	0xbd11fc83	-0.035641205
21	0x3ced5fc3	0.028976327
22	0x3b8e83b6	0.0043491973
23	0x3d05fbda	0.032710887
24	0x3ce288d0	0.027653128
25	0xbd32fccc	-0.043698117
26	0x3d5f1a5a	0.05446849
27	0x3ce98fa6	0.02851088
28	0xbd325804	-0.04354097
29	0xbd47d53d	-0.048787344
30	0x3b0d9714	0.0021604942
31	0x3ca58c1d	0.020208413
32	0x3de8ac6d	0.113610126
33	0x3dd86afc	0.10567281
34	0x3d1a6853	0.037697148
35	0x3c4b6f73	0.012416708
36	0xbde3664e	-0.111034974
37	0x3da737c2	0.08164932
38	0x3e0330c2	0.12811568
39	0x3cb99290	0.022652894
40	0xbc13a677	-0.009011856
41	0x3c532119	0.012886309
42	0x3da3b21c	0.07992956
43	0x3cd43281	0.025902988
44	0x3ca6e477	0.020372612
45	0x3d2bd3c1	0.04194999
46	0xbcb40f10	-0.021979839
47	0x3d645797	0.055747595
48	0xbdd1f523	-0.10251834
49	0xbc401e08	-0.01172591
50	0xbd3d0b79	-0.04615352
51	0xbd8005d2	-0.0625111
52	0xbd84f19c	-0.06491396
53	0xbdb02424	-0.08600643
54	0x3c82698a	0.015919466
55	0x3ca2a67c	0.019854777
56	0xbd0d6eb5	-0.034529407
57	0x3db085b0	0.08619249
58	0x3a951552	0.0011374152
59	0xbd83f1e8	-0.06442624
60	0x3ce0537e	0.027383562
61	0xbdb7cfa2	-0.0897515
62	0xbc47dd1f	-0.0121987155
63	0x3d934e2d	0.07192645
64	0x3d2256f5	0.03963371
65	0x3d3605e1	0.0444392
66	0x3ac8af85	0.0015311098
67	0xbc9ca90b	-0.019123575
68	0xbe210e46	-0.15728101
69	0xbd89c44f	-0.06726896
70	0xbca39250	-0.019967228
71	0x3d8f8751	0.070082314
72	0x3d0150d5	0.031571228
73	0xbd9339ae	-0.07188736
74	0x3c1c4ec2	0.009540262
75	0xbc6dad1f	-0.014506607
76	0x3d2a9256	0.041643463
77	0x3cf524f4	0.029924847
78	0xbd2f0a1e	-0.042734258
79	0xbd2cabfa	-0.042156197
80	0xbc4257f5	-0.011861791
81	0x3e06ac36	0.13151631
82	0xbc9ddfd0	-0.019271761
83	0xbd6cd7da	-0.05782304
84	0x3ce4f6d5	0.02794973
85	0x3cf7d5d2	0.030253325
86	0xbdd8b050	-0.10580504
87	0xbd85ad92	-0.065272465
88	0xbdab2234	-0.08356133
89	0x3d32481b	0.043525796
90	0x3dce57cd	0.100753404
91	0xbdabb35f	-0.08383822
92	0xbd4a8cc0	-0.049450636
93	0x3de1bfb0	0.110228896
94	0xbddf1bef	-0.10894
95	0xbd6fa451	-0.058506314
96	0x3d81d390	0.063391805
97	0x3cce52bc	0.025185935
98	0xbd1092e7	-0.035296347
99	0xbc119bee	-0.008887274
100	0xbca34918	-0.019932315
101	0xbc142ae6	-0.009043431
102	0xbe0ca9f4	-0.13736707
103	0xbd106622	-0.03525365
104	0xbc233c90	-0.00996317
105	0xbd7f429b	-0.06231938
106	0x3dbf47d2	0.093398705
107	0x3d645b0c	0.05575089
108	0xbdf9edd5	-0.12203566
109	0x3d1fb1b3	0.038987827
110	0xbde22910	-0.11042988
111	0x3d826176	0.063662454
112	0x3da33302	0.07968713
113	0x3c2245cb	0.009904335
114	0xbc2c37a1	-0.01051131
115	0x3bc4a2d0	0.006000854
116	0xbd141299	-0.03615055
117	0xbc3b2eba	-0.011424715
118	0x3d38c6d6	0.0451115
119	0x3dd9d57b	0.10636421
120	0xbd7364e1	-0.059422377
121	0x3bf57bb0	0.0074915513
122	0xbd2f0ddb	-0.042737823
123	0xbba58f2c	-0.005052468
124	0xbcc5ab1b	-0.024129441
125	0x3c97362e	0.018458452
126	0x3cfdf4cc	0.031000517
127	0x3c7fb4b5	0.015607049
128	0xbd9139d6	-0.070911095
129	0xbd88b911	-0.066759236
130	0xbb20a736	-0.0024513728
131	0x3d872783	0.06599333
132	0x3cbe2b16	0.023213904
133	0xbd660a96	-0.05616244
134	0x3d47fa06	0.048822425
135	0x3c834424	0.016023703
136	0xbc262e12	-0.01014282
137	0x3d150bc4	0.036388174
138	0xbc1d585d	-0.009603587
139	0xbd875024	-0.066070825
140	0xbb9639d6	-0.0045845313
141	0x3c325020	0.010883361
142	0x3c08f010	0.008358017
143	0xbd817094	-0.06320301
144	0xbcd6f60e	-0.026240375
145	0xbca38546	-0.01996101
146	0xbd6c4b05	-0.05768873
147	0xbc3174aa	-0.010831038
148	0xbd36ce75	-0.044630487
149	0x39e4fb48	0.00043674768
150	0xbdec7997	-0.11546629
151	0xbe20324b	-0.15644185
152	0x3d8c2cc8	0.06844479
153	0x3dbd898e	0.09254752
154	0x3d60c023	0.054870736
155	0x3dd0dde7	0.101985745
156	0xbd0f5167	-0.03498974
157	0xbadc9e3a	-0.0016831823
158	0x3cc3ec2d	0.023916328
159	0xbbaedc1a	-0.0053362967
160	0x3c91f3ff	0.017816542
161	0x3e0810e9	0.132877
162	0xbdf96091	-0.12176622
163	0x3cf49f8e	0.029861238
164	0x3c601986	0.01367796
165	0xbd607509	-0.054799113
166	0x3da6167a	0.08109756
167	0xbd410251	-0.04712135
168	0xbdc7df34	-0.097593695
169	0xbd8fe512	-0.070261136
170	0x3d4222e4	0.047396556
171	0x3cbb05d8	0.022829935
172	0xbd87f9ea	-0.06639464
173	0x3d3616b8	0.04445526
174	0x3d353c64	0.044247046
175	0xbc044dcc	-0.008075189
176	0x3d0407ed	0.03223412
177	0x3d30b0ba	0.04313729
178	0xbd8d241b	-0.06891652
179	0x3d9c212d	0.07623515
180	0xbd6e32f4	-0.05815406
181	0xbaeb504e	-0.001795301
182	0xbc5d9d4c	-0.013526272
183	0x3d6510cf	0.055924233
184	0xbc927ca1	-0.017881693
185	0x3d3b88ce	0.045784764
186	0xbcdef42d	-0.027216041
187	0xbd8cad7a	-0.068690255
188	0x3d55d91f	0.052209016
189	0x3d302ca8	0.043011338
190	0x3cd15442	0.025552873
191	0xbd418015	-0.04724129
192	0x3cf3318c	0.029686712
193	0x3a269608	0.0006354754
194	0x3da89e79	0.08233351
195	0x3bed5a3e	0.0072434237
196	0x3de94db9	0.113917775
197	0xbc438494	-0.011933465
198	0x3dd50a4b	0.10402354
199	0x3cb276fb	0.02178525
200	0xbd158912	-0.036507674
201	0x3d94430d	0.072393514
202	0x3cec4d65	0.028845498
203	0xbd8f6d93	-0.070033215
204	0x3badc771	0.0053033163
205	0xbd59c4a8	-0.05316606
206	0x3d0a6080	0.033783436
207	0xbd21104b	-0.03932218
208	0x3c97970a	0.018504638
209	0xbdf457e1	-0.11930824
210	0xbcafdd60	-0.021467865
211	0xbdee1da1	-0.11626745
212	0xbd09cdee	-0.033643655
213	0x3dee5d03	0.11638834
214	0xbddc13c9	-0.10745961
215	0x3debd77e	0.11515711
216	0x3d536881	0.051613335
217	0x3d005e93	0.031340193
218	0xbd6a3003	-0.057174694
219	0xbddfbd3d	-0.10924766
220	0x3e113707	0.14181148
221	0xbc743a0e	-0.014906419
222	0xbd7b80a1	-0.061401967
223	0xbdd5e627	-0.10444289
224	0xbc7551ed	-0.014973146
225	0xbd1e73a7	-0.038684513
226	0x3bff6ce2	0.0077949623
227	0xbac12562	-0.0014735872
228	0xbd533204	-0.05156137
229	0xbc26b0d7	-0.010173998
230	0xbd43bd18	-0.047787756
231	0x3af9f6b8	0.001907072
232	0x3d916416	0.07099168
233	0xbc0c7d22	-0.008574756
234	0x3dc6ef57	0.09713619
235	0x3e01afd1	0.12664725
236	0xbd8ce55a	-0.06879683
237	0x3d6bce4c	0.057569787
238	0x3cf8baf7	0.03036259
239	0x3da18e27	0.078884415
240	0x3d3fa5e1	0.046789054
241	0x3dbb7337	0.09152835
242	0x3d444413	0.047916483
243	0xbdc4fffb	-0.09619137
244	0x3d2bb569	0.041921053
245	0x3d81699f	0.06318974
246	0x3d4d6825	0.050148148
247	0x3dba3ef0	0.090940356
248	0x3d664b36	0.05622407
249	0xbdd0e22c	-0.10199389
250	0xbcda9fd6	-0.026687544
251	0x3d276a2e	0.040872745
252	0xbd9e5f22	-0.07732989
253	0x3c82c52e	0.015963163
254	0x3c461b4e	0.012091471
255	0xbd9c0acf	-0.07619249

encoder.4.bias f4 [32]
0	0x3d73dd81	0.059537414
1	0x3d8d6e4b	0.06905802
2	0x3e02f898	0.12790143
3	0x3d780fcc	0.06056194
4	0x3d9dd002	0.0770569
5	0xbc81a3c3	-0.015825158
6	0x3d7d6adf	0.0618695
7	0x3df1b1f2	0.118015185
8	0x3b2ee824	0.002668866
9	0x3d16437a	0.036685444
10	0x3d9fbc3f	0.07799577
11	0x3d9751ea	0.07388671
12	0x3d9e2fca	0.07723959
13	0xbbd7409e	-0.0065689823
14	0x3db057d5	0.08610503
15	0x3d4365a6	0.04770436
16	0x3ce46c70	0.027883738
17	0xbc2870e5	-0.010280822
18	0x3daf041b	0.08545705
19	0x3e1ce9b4	0.15323526
20	0x3db127dc	0.08650181
21	0x3d48715d	0.048936237
22	0xbc929d96	-0.017897408
23	0x3d044df2	0.032300897
24	0x3df00212	0.11719145
25	0x3d9eb648	0.07749611
26	0x3d23a268	0.039949805
27	0xbd02e4e0	-0.031956553
28	0x3def331c	0.1167967
29	0xba278864	-0.0006390868
30	0x3dd3a166	0.10333519
31	0x3d507ff4	0.050903276
